…
          "base_uri": "https://localhost:8080/"
        },
        "outputId": "22220a49-9c47-46f9-d9ea-2a0c120e0b0c"
      },
      "source": [
        "model.summary()"
      ],
      "execution_count": null,
      "outputs": [
        {
          "output_type": "stream",
          "text": [
            "Model: \"sequential\"\n",
            "_________________________________________________________________\n",
            "Layer (type)                 Output Shape              Param #   \n",
            "=================================================================\n",
            "conv2d (Conv2D)              (None, 32, 32, 64)        1792      \n",
            "_________________________________________________________________\n",
            "activation (Activation)      (None, 32, 32, 64)        0         \n",
            "_________________________________________________________________\n",
            "batch_normalization (BatchNo (None, 32, 32, 64)        256       \n",
            "_________________________________________________________________\n",
            "conv2d_1 (Conv2D)            (None, 32, 32, 64)        36928     \n",
            "_________________________________________________________________\n",
            "activation_1 (Activation)    (None, 32, 32, 64)        0         \n",
            "_________________________________________________________________\n",
            "batch_normalization_1 (Batch (None, 32, 32, 64)        256       \n",
            "_________________________________________________________________\n",
            "max_pooling2d (MaxPooling2D) (None, 16, 16, 64)        0         \n",
            "_________________________________________________________________\n",
            "dropout (Dropout)            (None, 16, 16, 64)        0         \n",
            "_________________________________________________________________\n",
            "conv2d_2 (Conv2D)            (None, 16, 16, 128)       73856     \n",
            "_________________________________________________________________\n",
            "activation_2 (Activation)    (None, 16, 16, 128)       0         \n",
            "_________________________________________________________________\n",
            "batch_normalization_2 (Batch (None, 16, 16, 128)       512       \n",
            "_________________________________________________________________\n",
            "conv2d_3 (Conv2D)            (None, 16, 16, 128)       147584    \n",
            "_________________________________________________________________\n",
            "activation_3 (Activation)    (None, 16, 16, 128)       0         \n",
            "_________________________________________________________________\n",
            "batch_normalization_3 (Batch (None, 16, 16, 128)       512       \n",
            "_________________________________________________________________\n",
            "max_pooling2d_1 (MaxPooling2 (None, 8, 8, 128)         0         \n",
            "_________________________________________________________________\n",
            "dropout_1 (Dropout)          (None, 8, 8, 128)         0         \n",
            "_________________________________________________________________\n",
            "conv2d_4 (Conv2D)            (None, 8, 8, 128)         147584    \n",
            "_________________________________________________________________\n",
            "activation_4 (Activation)    (None, 8, 8, 128)         0         \n",
            "_________________________________________________________________\n",
            "batch_normalization_4 (Batch (None, 8, 8, 128)         512       \n",
            "_________________________________________________________________\n",
            "conv2d_5 (Conv2D)            (None, 8, 8, 128)         147584    \n",
            "_________________________________________________________________\n",
            "activation_5 (Activation)    (None, 8, 8, 128)         0         \n",
            "_________________________________________________________________\n",
            "batch_normalization_5 (Batch (None, 8, 8, 128)         512       \n",
            "_________________________________________________________________\n",
            "max_pooling2d_2 (MaxPooling2 (None, 4, 4, 128)         0         \n",
            "_________________________________________________________________\n",
            "dropout_2 (Dropout)          (None, 4, 4, 128)         0         \n",
            "_________________________________________________________________\n",
            "conv2d_6 (Conv2D)            (None, 4, 4, 256)         295168    \n",
            "_________________________________________________________________\n",
            "activation_6 (Activation)    (None, 4, 4, 256)         0         \n",
            "_________________________________________________________________\n",
            "batch_normalization_6 (Batch (None, 4, 4, 256)         1024      \n",
            "_________________________________________________________________\n",
            "conv2d_7 (Conv2D)            (None, 4, 4, 256)         590080    \n",
            "_________________________________________________________________\n",
            "activation_7 (Activation)    (None, 4, 4, 256)         0         \n",
            "_________________________________________________________________\n",
            "batch_normalization_7 (Batch (None, 4, 4, 256)         1024      \n",
            "_________________________________________________________________\n",
            "max_pooling2d_3 (MaxPooling2 (None, 2, 2, 256)         0         \n",
            "_________________________________________________________________\n",
            "dropout_3 (Dropout)          (None, 2, 2, 256)         0         \n",
            "_________________________________________________________________\n",
            "flatten (Flatten)            (None, 1024)              0         \n",
            "_________________________________________________________________\n",
            "dense (Dense)                (None, 10)                10250     \n",
            "=================================================================\n",
            "Total params: 1,455,434\n",
            "Trainable params: 1,453,130\n",
            "Non-trainable params: 2,304\n",
            "_________________________________________________________________\n"
          ],
          "name": "stdout"
        }
      ]
    },
    {
      "cell_type": "code",
…
